Hope/data.pth (torch, 4503 bytes, 6 tensors)

l1.weight f4 [8, 39]
00000000: 7ae4 fabe ca91 e53e d046 183e 4e79 b8be
00000010: d9a6 a6be 6174 9cbe 8c1f a23e 9e24 153f
00000020: 3942 babe d476 e03e 4b99 97be b8eb 8ebe
00000030: aaf8 07bf 249d 433f d4a6 ef3e 71f3 813e
00000040: c58e a13e fdd3 1c3f 3f17 253e 6859 e73e
00000050: 6c78 86be fb82 ddbe e32f 0ebf c387 d4be
00000060: 6088 f83e 83e7 2f3f 1464 db3e 27f7 f53e
00000070: c0f8 d73e 2a2b 533e 6aa4 163c b5f5 1c3f
00000080: 471a d93e b597 93be 1deb f8be 178a 163f
00000090: 11c9 893e f4cb 0c3f 596b cc3e 0117 c83e
000000a0: 7f84 60be f9b5 713e 9c1e de3e 9223 8e3e
000000b0: 0f67 82be 9bc7 4d3f 1c70 c2be 0af6 59be
000000c0: b85e 4d3f 1c81 abbe d5aa cf3e bce0 4bbe
000000d0: adf1 b1be 25bb d8bd 8676 0a3f 9fe7 fb3e
000000e0: 7705 8abe 7156 8e3e 0658 e1be 8ed4 cb3e
000000f0: e695 25bf 99b5 fe3e b0c1 be3e 2ee9 1b3f
00000100: acaf ebbe 74bd c63e 8112 20be 9513 b5be
00000110: 8cb1 08bf b656 0cbf c2ef 8f3e a92b c43e
00000120: e003 993e 3220 ca3e c88b f7bc c346 69be
00000130: 12e5 92be 12eb bf3e eb2e 0ebf 9216 34be
00000140: d841 34bd c22e e53e fb04 4f3e a393 c2be
00000150: 1257 bcbe f806 d9be 2a6f d3be f32d 4e3f
00000160: 6033 d6be e666 763e e324 b6bd 2ef4 2dbe
00000170: fc11 9cbe 9de7 3abe 0b0d 40be d613 0ebf
00000180: f214 0fbe 34ec 5abe 3461 6c3e 474a 08bf
00000190: 125d ee3e fcb4 db3e 8c57 97be 623f a43f
000001a0: 69a8 253f fa35 9fbe a6f0 afbe 08d5 a9bd
000001b0: 78ad debe 0ce1 4b3f c3c8 8c3d e573 ef3e
000001c0: abc2 09bf 210c e43e f84c 93bd cfee f1bd
000001d0: fbcc 1b3f 38ce 2fbf fbce 3e3f 87cc 403a
000001e0: 7523 0a3f 5d28 143f 4851 043f f399 d6bd
000001f0: 63f8 463f c5b4 9c3e 33be 2dbf 375c f03e
00000200: 80bb d63e 0518 7d3e cefa 243f 9f2e 183f
00000210: b781 3d3e 551e 4fbe bd26 29be 5d58 f13e
00000220: 05f0 183f d05a d23e 3e45 173f 9951 113f
00000230: 8096 1c3f fe94 0c3e 7dbe 96be ec3b bbbe
00000240: 7ff1 3e3f 2009 80be 2816 903e 5967 bd3e
00000250: cd27 a9be 1450 993e d408 e13e 4fd0 2fbf
00000260: f318 a53e b539 ab3e 04ed da3e 6912 86be
00000270: 857c b3be e2c3 65be db7f 82bd cf2c 8b3e
00000280: 9c1c b73e 652c b03e aa05 f3be 65e9 0cbe
00000290: 44c0 9e3e 6f79 c6bd d6dc e63e 070c db3e
000002a0: 87dd e33e 2c0c 49be adbb 46be 96e8 cbbe
000002b0: fad6 ebbe 1055 b83e f293 ecbc 669a 47be
000002c0: 3935 2c3e b3f1 a93e 0ce7 203f b760 323f
000002d0: 3346 65be 4bfb 313f 46ed a0be b66d 19be
000002e0: c325 983e 2346 febe 40db eb3e 91b0 c2be
000002f0: c212 873e 9370 c93e a003 d8be f7bc 82bc
00000300: 7657 f7bb f108 23be 470d dcbd 39c9 493f
00000310: a822 5cbe 6235 dcbc fe0e e43c 3d85 633d
00000320: f71a e6bd 464a 75be 415d 44be 7e19 adbe
00000330: 8494 473f 7e64 7abe bb46 81bd 7a63 8dbe
00000340: f080 56be 7cab cfbe 79fc efbd b908 6c3e
00000350: cfb2 f43e 8540 673d 5ae2 87be 77e6 43be
00000360: 3e5a d1be f881 a0be 318e 70be e36f 87be
00000370: cd11 543f 93ac e73e 3040 a7be d315 333f
00000380: fa53 6ebf a59e d0be 0d3c 723e 6892 163e
00000390: 35a4 d5bd faa6 3c3f 8ea2 e6bd 2d2c 3abe
000003a0: 9674 16be 4684 073f f709 64be bbdb 78be
000003b0: 10ff 8c3e 3a44 013f e105 a43e 1a32 f43e
000003c0: 1059 983e b5d2 98bd cfeb 023f 9169 70be
000003d0: 07dd e13e 733c 763e 1429 df3e 981b b5be
000003e0: 659c c2bd 44cc e03e d73a 653e decc 2cbc
000003f0: 164e 913e 0151 e0be 555c 723e e552 123f
-0.4900244 0.4483779 0.14870763 -0.36030048 -0.3254917 -0.3055754 0.31664693 0.58259
-0.3637865 0.4384066 -0.2960914 -0.27914214 -0.53113806 0.7641165 0.46806967 0.25381044
0.31554237 0.6126097 0.16122149 0.451854 -0.2626375 -0.43263993 -0.5554182 -0.41509828
0.48541546 0.68712634 0.4284979 0.48040125 0.4218197 0.20621935 0.009194473 0.6131242
0.4240286 -0.2882668 -0.48616877 0.5880446 0.26911214 0.5499871 0.3992565 0.3908005
-0.21925543 0.23604573 0.43382728 0.27761513 -0.25469252 0.803827 -0.37976158 -0.21285263
0.80222654 -0.3349694 0.40560022 -0.19909948 -0.34754696 -0.1058257 0.540871 0.4920015
-0.26957294 0.27800325 -0.4401247 0.39810604 -0.6468185 0.49747923 0.37257147 0.6090268
-0.46032465 0.38816416 -0.15632059 -0.35366502 -0.53395915 -0.5481981 0.28112608 0.3831456
0.2988577 0.39477688 -0.03021802 -0.227809 -0.28690392 0.37484032 -0.5554034 -0.17586735
-0.044008106 0.44762236 0.20216744 -0.38003263 -0.3678518 -0.4238813 -0.4129575 0.8053886
-0.4183607 0.2406269 -0.08893754 -0.16987678 -0.3048247 -0.18252416 -0.18754975 -0.5549902
-0.13972834 -0.21379167 0.23083955 -0.5323834 0.46555382 0.42911518 -0.2955898 1.2831843
0.647101 -0.31095868 -0.34363288 -0.082925856 -0.4349172 0.7964027 0.0687423 0.46768108
-0.53812665 0.44540504 -0.07192415 -0.11813127 0.6085965 -0.6867404 0.7453458 0.00073546957
0.53960353 0.5787409 0.51686525 -0.10478582 0.7772276 0.30606666 -0.67868346 0.46945354
0.41939926 0.24716194 0.644452 0.5944614 0.18506514 -0.20226415 -0.16518684 0.47137728
0.5974124 0.4108491 0.5909003 0.56765133 0.61167145 0.13728711 -0.29442206 -0.36569154
0.74587244 -0.25006962 0.28141904 0.3699291 -0.33038178 0.29943907 0.43952048 -0.6867723
0.32245597 0.33442464 0.42758954 -0.2618592 -0.35055938 -0.22438005 -0.06372043 0.27182624
0.35764015 0.3440887 -0.4746526 -0.13760908 0.31006062 -0.0969113 0.4509036 0.42782614
0.4450495 -0.1963355 -0.1940753 -0.39825886 -0.46062452 0.36002398 -0.02887914 -0.19492492
0.16817178 0.33192214 0.6285255 0.69678825 -0.2239006 0.6952407 -0.31431025 -0.14983258
0.2971631 -0.49662885 0.46065712 -0.38025334 0.263815 0.393437 -0.42190266 -0.015959246
-0.007548268 -0.1592138 -0.1074472 0.78822666 -0.21497595 -0.026880924 0.02783918 0.055546988
-0.11235612 -0.23954114 -0.19176199 -0.33808511 0.7796099 -0.24452397 -0.06312319 -0.27614957
-0.20947623 -0.4056052 -0.11718077 0.23050202 0.4779267 0.056458015 -0.2653988 -0.19130884
-0.40889162 -0.31349158 -0.23491742 -0.2645255 0.8283966 0.4524885 -0.3266616 0.69955176
-0.9309689 -0.40746036 0.2365572 0.14704287 -0.10431711 0.73692286 -0.112614736 -0.18180914
-0.14692912 0.5293621 -0.22269426 -0.2430257 0.27538347 0.5049473 0.32035735 0.47694474
0.2975545 -0.07462064 0.51141065 -0.2347777 0.44113943 0.24046497 0.43586028 -0.35372615
-0.09502486 0.43905842 0.22385727 -0.010546891 0.28379887 -0.438118 0.23668034 0.57157737

l1.bias f4 [8]
00000000: a4fb 253f dc33 553f 2a0a 663f 8cd0 2f3f
00000010: ed3e 643f 6c98 4e3f d431 283f 26a3 ed3e
0.648371 0.83282256 0.8985926 0.6867759 0.8915852 0.8070133 0.6570103 0.46413535

l2.weight f4 [8, 8]
00000000: 969e 903e 94d9 a13f 8dbe 053f 5879 d2be
00000010: 1722 81bf 0db3 b5be 5aec aa3e aee0 723f
00000020: 3f6d 163f 626b 7a3c fe68 4cbf b0c2 a43f
00000030: 08f4 8b3f ecb1 4abf 408f 5f3f 99c2 6b3f
00000040: d50e a73e b4fe 1e3f dbf1 6ebf 512c 89be
00000050: fd4e 8a3e a787 2d3f b411 0c3f ccf7 7a3f
00000060: c2d7 cc3e 098c aa3f f5b0 943f c451 20bf
00000070: be2f 5e3f f377 bf3f 94c0 5dbd 17c8 f1bd
00000080: 859d 63bf b75c d2bd c363 b63e 9209 473f
00000090: 9b1f 6c3f 3fe8 fbbe 61f8 803f fc2e 18bd
000000a0: 4421 ad3f fa03 f8be b90a 723f c050 063f
000000b0: e865 943d eb87 0abd e810 4bbf 7c0a 753f
000000c0: 6229 353f 7a47 d03e 6814 2b3d d74b 923f
000000d0: 8e58 9ebe a491 6cbf 2c8d 133f ecbc 733d
000000e0: 721e 4dbf 7d57 9b3f 38eb 3a3f 51ac ff3e
000000f0: 98dd 6c3f 6446 e13e bf09 4a3f 2333 13bf
0.2824599 1.2644525 0.5224388 -0.41108203 -1.0088528 -0.35488167 0.33383447 0.94874084
0.58760446 0.015284391 -0.79847705 1.2871914 1.0933847 -0.7917774 0.8732796 0.9209381
0.32628503 0.62107396 -0.9333779 -0.26791623 0.27013388 0.67785114 0.5471451 0.9803436
0.4000836 1.3323985 1.1616503 -0.62624764 0.867916 1.4958481 -0.054138735 -0.11805742
-0.8891223 -0.1027159 0.35622987 0.7774898 0.92235726 -0.49200627 1.0075799 -0.037154183
1.3525777 -0.48440534 0.9454761 0.52466965 0.072459996 -0.033821028 -0.7932267 0.9571912
0.7076627 0.40679532 0.041767508 1.1429394 -0.30926937 -0.9240973 0.57637286 0.05950634
-0.8012458 1.2136074 0.73015165 0.49936154 0.92525625 0.43999016 0.7892112 -0.57499903

l2.bias f4 [8]
00000000: 5828 413d 3e29 3d3e ff94 c2be 500c f83e
00000010: 57dc 5a3b 9a2d 0a3e 106a b13e 03ce 02bd
0.047157615 0.18472764 -0.380043 0.48446894 0.0033395493 0.13493958 0.34651232 -0.03193475

l3.weight f4 [9, 8]
00000000: e1cf 30be fc2c 96bf 024b 88bd b812 363f
00000010: a7e9 87bf 6232 e9bf edd4 a6bf 7f1d bc3e
00000020: 8037 95bf ea6f eb3e c4c7 d7be 62de cebf
00000030: 853f 33bf adc7 2a3f bbbd 1f3f fbd2 a4bf
00000040: d766 4f3f a61e b03e ef4b fa3e 8ee3 a3bf
00000050: a510 1fbf 4219 5cbe fef2 8cbd 245f 31bf
00000060: a149 103f 17cc 5cbe c7f7 70bf 9aa4 b3be
00000070: 76ab 48bf 72c8 fc3e 3e50 823e 221b 02c0
00000080: f397 cabf 43b0 0c3e dc2a 243f 911d 123e
00000090: 3921 52bf c977 4a3e a373 90bf 9c9a b1bf
000000a0: 2a64 5fbf dc51 2b3f 6e0d 8a3e c847 b9bf
000000b0: e501 e83e a965 0bbf 8d74 b6bd 3db0 a0bb
000000c0: c82a f2bf a80b 62bf 3bd9 dfbf 8688 1b3f
000000d0: 3d6d 28bf 675f e23e 05d9 cfbf c264 173e
000000e0: 0354 e73e 1087 c5bf 73d4 9f3d 8c1c 8b3d
000000f0: a542 1dbf c494 b33e 7159 f1be 5548 5cbf
00000100: 1f76 89bf 2b46 4fbb f280 adbf c2af f0bd
00000110: 34c7 e03e ac24 95bf 5578 afbc ba82 433f
-0.172668 -1.1732478 -0.066549316 0.7112231 -1.061818 -1.8218501 -1.303373 0.36741254
-1.1657562 0.4598382 -0.42144597 -1.6161616 -0.700188 0.6671093 0.6239888 -1.2876886
0.81016296 0.34398383 0.48886058 -1.2803819 -0.6213477 -0.2149401 -0.068822846 -0.692858
0.5636235 -0.21562229 -0.9412808 -0.3508652 -0.7838663 0.49371678 0.25451845 -2.032906
-1.5827621 0.13739114 0.641279 0.14269091 -0.82081944 0.19772257 -1.128529 -1.3875308
-0.87262213 0.6692178 0.2696337 -1.4475031 0.45313945 -0.54451996 -0.08908949 -0.0049038217
-1.8919306 -0.88299036 -1.7488168 0.60755193 -0.65791684 0.4421341 -1.6238104 0.1478453
0.45181283 -1.5431843 0.07804193 0.06792554 -0.61429816 0.35074437 -0.4713855 -0.8604787
-1.0739173 -0.0031627517 -1.3554976 -0.11752273 0.4390198 -1.1651816 -0.021419683 0.7637135

l3.bias f4 [9]
00000000: b028 463f b57a bcbb f26d f6be 162f 493c
00000010: 0bc8 da3d 1c32 cabe ca01 e6be 9823 c6be
00000020: 36a7 3b3e
0.77405834 -0.0057519325 -0.48130757 0.012279293 0.106826864 -0.39491355 -0.4492324 -0.3869903
0.18325505
